MLPweight.npz (npz, 1916 bytes, 4 tensors)

v f8 [5, 2]
-0.5339598189352395 0.5174980122996569 2.638728525351474 -2.643250926197196 2.1586510575712707 -2.164135839467863 -1.1848807910493977 1.1714800531580412
-1.8630209728376455 1.866116699970424
00000000: d48e f6e6 3216 e1bf 164e d2fd 578f e03f
00000010: 4e41 7bb3 1d1c 0540 fd1b d9bd 6025 05c0
00000020: 93f4 7dd8 ea44 0140 86ed 7473 2650 01c0
00000030: ce73 738f 45f5 f2bf 9bae 43de 61be f23f
00000040: bf98 6114 efce fdbf 5547 4e2f 9ddb fd3f

v0 f8 [1, 2]
-0.23803022753874425 0.24963497184552266
00000000: 1882 5e45 c677 cebf e1d7 01ec 09f4 cf3f

w f8 [2, 5]
-0.10331351458698201 0.8730287665842029 -0.5159435716757321 0.5724451335681036 0.6975699973401832 -0.09383664753848578 -0.48510090482776075 1.057469284033616
0.48127476940834885 0.5080813887438613
00000000: c8ca 6226 c172 babf a848 1e06 daef eb3f
00000010: ecb7 dd17 9c82 e0bf 4abd ed74 7851 e23f
00000020: 8ee6 a750 7e52 e63f 5215 58b4 ad05 b8bf
00000030: 07b2 5faa e40b dfbf c22e 77e9 64eb f03f
00000040: 55ec bfb0 34cd de3f 848e 8be6 3342 e03f

w0 f8 [1, 5]
0.5791053220375747 0.7651070868557408 0.30262385813203163 -0.6588532981563276 -1.6617684506702968
00000000: e9e8 62e2 0788 e23f b076 7fdb c17b e83f
00000010: 9ea6 6a75 305e d33f 672e 0e83 5315 e5bf
00000020: cb74 d283 9a96 fabf
